best_cnn_detector.pth (torch, 245802 bytes, 26 tensors)

features.0.weight f4 [32, 3, 3, 3]
0	0x3da59d6e	0.08086668
1	0x3d3a800a	0.045532264
2	0xbcb13bcc	-0.021634959
3	0x3c0e4d38	0.008685403
4	0x3dfb4656	0.12269275
5	0xbe0fdc41	-0.14048864
6	0xbd932009	-0.071838446
7	0x3cab7d3c	0.02093374
8	0xbe1f098d	-0.15530987
9	0x3d693fc6	0.056945585
10	0xbd765b9a	-0.06014595
11	0x3e323cc7	0.17405997
12	0x3e508125	0.20361765
13	0x3e847cd7	0.25876495
14	0x3e9573e5	0.29189983
15	0x3df0bb39	0.1175446
16	0x3e1e4f42	0.15459922
17	0x3e51d74e	0.20492288
18	0xbd975324	-0.07388905
19	0xbe4bbcf9	-0.19896306
20	0xbe656d16	-0.22404894
21	0x3d50fbc6	0.05102136
22	0x3e1b9a26	0.15195522
23	0x3e37782b	0.17916934
24	0xbe117137	-0.14203344
25	0xbe6beae5	-0.23038824
26	0xbe2786eb	-0.16360061
27	0x3da884a5	0.08228425
28	0xbc77994c	-0.015112232
29	0x3d405604	0.04695703
30	0xbccc3a2e	-0.024930086
31	0x3c8d82a3	0.017274207
32	0xbc74a9e4	-0.014933083
33	0x3d941394	0.07230297
34	0xbd70af28	-0.058760792
35	0x3c5034b2	0.012707876
36	0x3e93fcb4	0.28903735
37	0x3e56a298	0.20960462
38	0x3d256616	0.04038056
39	0x3df14842	0.1178136
40	0x3dab6426	0.08368711
41	0x3e954fd1	0.29162458
42	0x3e74942b	0.23884647
43	0x3ea8995a	0.32929498
44	0x3e878603	0.2646943
45	0xbe948df4	-0.29014552
46	0xbde03e71	-0.1094941
47	0xbd8b2f28	-0.06796104
48	0x3c8d4115	0.017242948
49	0xbe25f685	-0.16207321
50	0xbe854509	-0.26029232
51	0xbcda0751	-0.026614817
52	0xbdeeeb2a	-0.11665948
53	0xbe6ea050	-0.23303342
54	0xbe3cc625	-0.18434961
55	0xbda00d01	-0.0781498
56	0xbe89225b	-0.26784024
57	0x3da4e2b0	0.0805105
58	0x3c990348	0.018678322
59	0xbe801314	-0.25014555
60	0xbe254361	-0.16138984
61	0xbdb26104	-0.087099105
62	0x3d0d48e1	0.03449333
63	0xbd809155	-0.0627772
64	0xbc6dc2b9	-0.0145117575
65	0xbdaf7839	-0.085678525
66	0xbd6220d1	-0.055207077
67	0x3e92082e	0.28521866
68	0xbdbb08fa	-0.091325715
69	0x3dce3ef3	0.100706
70	0xbe4d7c81	-0.20067026
71	0xbd3c1c2a	-0.045925297
72	0xbe5a7ee2	-0.21337464
73	0xbd13e920	-0.036110997
74	0xbda337f3	-0.07969656
75	0xbde3f17f	-0.11130046
76	0x3b45c8db	0.0030179534
77	0xbe26dde4	-0.16295582
78	0xbe28acd0	-0.16472173
79	0xbe37499c	-0.17899173
80	0xbe0ae37e	-0.13563344
81	0xbe164314	-0.14674026
82	0xbc6a2dff	-0.014293193
83	0xbe6215ee	-0.22078678
84	0xbe842597	-0.2580993
85	0xbe5e0866	-0.21682891
86	0xbe16992e	-0.14706871
87	0xbd830599	-0.06397552
88	0xbde008a8	-0.10939151
89	0xbdf01787	-0.117232375
90	0x3d7e66a9	0.062109623
91	0x3db79967	0.08964806
92	0x3e79ffbf	0.24413966
93	0xbcf5af0f	-0.029990701
94	0x3db5edbc	0.08883235
95	0x3de176eb	0.1100901
96	0xbd7926df	-0.060828086
97	0x3e28c641	0.16481878
98	0x3cde09dc	0.02710431
99	0x3c28ef4d	0.01031096
100	0x3e1ad975	0.15122016
101	0x3d3b16a2	0.04567588
102	0x3e637d40	0.22215748
103	0xbbb6f010	-0.005582817
104	0x3e2c6730	0.16836238
105	0x3e857a3e	0.26069826
106	0x3e1749a2	0.14774182
107	0x3de51877	0.11186307
108	0x3e04c872	0.12967089
109	0xbd5d5e9a	-0.054045297
110	0xbda26035	-0.07928506
111	0xbe6f15a9	-0.23348106
112	0xbd86001d	-0.0654299
113	0x3e58dafa	0.21177283
114	0xbcdcafb9	-0.02693926
115	0xbbbd36ca	-0.0057743536
116	0xbdd5933c	-0.10428473
117	0x3e4ce4e0	0.20009184
118	0xbd8c1b50	-0.06841147
119	0xbd40f2f0	-0.047106683
120	0xbe15ee3c	-0.1464166
121	0x3e6fe33c	0.23426527
122	0x3e8b4aad	0.2720541
123	0x3df7335a	0.120703414
124	0x3ce363de	0.027757581
125	0xbd2d6916	-0.042336546
126	0xbd8f8bd1	-0.0700909
127	0xbe232cf3	-0.15935116
128	0xbe99a1f6	-0.3000638
129	0xbe865e09	-0.26243618
130	0x3e00eeca	0.12591091
131	0x3e02b30b	0.12763612
132	0x3de04e91	0.10952485
133	0xbe099d0b	-0.13438813
134	0xbe929c94	-0.28635085
135	0xbd8d235f	-0.06891512
136	0xbe0630e8	-0.13104594
137	0xbe96498a	-0.2935298
138	0xbe8f17e2	-0.2794791
139	0xbe4a4d30	-0.19756007
140	0xbd1513c9	-0.03639582
141	0xbda3814e	-0.07983647
142	0xbdf27ec9	-0.118405886
143	0xbca2f710	-0.0198932
144	0x3d58ecd2	0.052960224
145	0x3d8d3366	0.06894569
146	0xbe36c493	-0.17848425
147	0x3d3a9e69	0.045561228
148	0xbcb8584c	-0.02250304
149	0x3af8b35e	0.0018974354
150	0xbe33f606	-0.17574319
151	0x3dae2e92	0.08504976
152	0xbde20819	-0.11036701
153	0x3e7cd8cc	0.24692076
154	0xbb084451	-0.0020792673
155	0x3e885bea	0.26632625
156	0x3e17892d	0.14798422
157	0x3de5861e	0.112072214
158	0x3dc0182a	0.09379609
159	0x3dc3d314	0.09561744
160	0x3e1b1914	0.15146285
161	0x3d957151	0.07297004
162	0x3e666130	0.22498012
163	0xbe18a979	-0.14908399
164	0xbe9a8f7d	-0.30187598
165	0xbd2b4dfa	-0.04182241
166	0xbd1c4e21	-0.038160447
167	0xbea4d810	-0.32196093
168	0x3e826963	0.2547103
169	0xbda42289	-0.080143996
170	0xbe32e934	-0.17471772
171	0x3da6ccbc	0.08144519
172	0x3e08d96d	0.13364191
173	0xbe7f898c	-0.24954814
174	0x3d93376a	0.07188304
175	0x3da5c1dd	0.08093617
176	0xbe95830f	-0.29201552
177	0x3e79fea5	0.24413545
178	0x3bde8d40	0.0067917407
179	0xbe1052e0	-0.14094114
180	0x3dbc7ffc	0.092040986
181	0x3dca38c7	0.09874111
182	0x3d11c7d4	0.03559096
183	0x3e42c6e6	0.19021186
184	0xbe30d95a	-0.17270413
185	0xbe10586d	-0.14096232
186	0xbd46a8ff	-0.04850101
187	0x3e1010ee	0.14068958
188	0xbe2263a3	-0.15858321
189	0x3dcf8a0e	0.10133754
190	0xbdc408c7	-0.09571987
191	0xbe971959	-0.29511526
192	0xbd06ff49	-0.032958303
193	0xbe0c2443	-0.13685708
194	0xbe8c61a7	-0.27418253
195	0x3c60872b	0.013704102
196	0x3db966ae	0.09052788
197	0xbd390640	-0.045171976
198	0x3e1bf512	0.15230206
199	0xbd9711c7	-0.07376438
200	0xbe6df814	-0.23239166
201	0x3dbee9d3	0.09321942
202	0xbe1f08fb	-0.1553077
203	0xbea57f75	-0.32323804
204	0x3e852798	0.2600677
205	0xbd1680ca	-0.036743917
206	0xbeac435d	-0.33645144
207	0x3d967884	0.07347205
208	0x3e4fc488	0.20289814
209	0x3c141813	0.009038943
210	0x3e0c1828	0.1368109
211	0x3e357935	0.17722018
212	0x3cb6a4e6	0.022295427
213	0x3e099719	0.13436545
214	0xbcd27631	-0.025691124
215	0x3d0bdcf0	0.03414625
216	0x3d4d006c	0.05004923
217	0x3dcc1d87	0.099665694
218	0xbe0cfd2a	-0.1376845
219	0xbe852e3a	-0.2601183
220	0xbcca150e	-0.024668243
221	0xbd9faf2d	-0.07797084
222	0x3c2e1773	0.010625708
223	0x3ce0b02a	0.027427752
224	0xbd963a7f	-0.07335376
225	0xbd233d09	-0.03985313
226	0xbb4121ae	-0.0029469538
227	0xbcd891ea	-0.026436765
228	0x3d622f40	0.055220842
229	0x3d99adf8	0.07503885
230	0x3e03a822	0.12857106
231	0x3dd40745	0.10352949
232	0xbc27de2c	-0.010245841
233	0x3e4605a6	0.19338092
234	0x3ebf7689	0.37395123
235	0x3ee2bb76	0.44283646
236	0x3f128550	0.5723467
237	0x3e8af3d9	0.27139166
238	0x3e801cc2	0.2502194
239	0x3e822031	0.25415185
240	0x3e6b3798	0.22970426
241	0x3e788ff9	0.24273671
242	0x3eb4ed9b	0.3533753
243	0xbe45121d	-0.19245191
244	0xbe6a169a	-0.22860184
245	0xbe2d4785	-0.16921814
246	0xbdbcccd3	-0.092187546
247	0xbb0dac31	-0.0021617527
248	0xbe9ddd36	-0.30832833
249	0x3bb1b3d5	0.005423049
250	0xbe96d256	-0.2945735
251	0xbd6b9839	-0.057518218
252	0x3e9b61e9	0.30348137
253	0x3e96aa73	0.29426917
254	0x3e3155a9	0.17317833
255	0x3e00b835	0.1257027

features.0.bias f4 [32]
0	0xba2bf75c	-0.0006559992
1	0x392cc4f7	0.00016476573
2	0x389082f6	6.8908485e-05
3	0xba941938	-0.001129902
4	0x3ba41ef2	0.005008572
5	0xb9d41abc	-0.0004045571
6	0x3ac448ab	0.001497527
7	0xba5308a6	-0.00080503
8	0x389380e0	7.033511e-05
9	0x3bc19408	0.0059075393
10	0xba70b4ff	-0.0009182244
11	0xbab3d315	-0.0013719524
12	0x3b5d2a11	0.0033746997
13	0x3903473e	0.00012519673
14	0x3a3ab6e2	0.00071225886
15	0xba899b51	-0.0010498558
16	0xb8876239	-6.455597e-05
17	0x3bf20dd0	0.0073869005
18	0x394232d3	0.00018520215
19	0x3a02f525	0.0004995636
20	0x3ba63c00	0.0050730705
21	0x3a381952	0.0007022816
22	0xb9b6c743	-0.00034862207
23	0x39dcaf0c	0.0004209209
24	0xbb5adef0	-0.0033397041
25	0xba0319fb	-0.0005001125
26	0xbc281459	-0.0102587575
27	0x3a00689e	0.00048984017
28	0x392400d4	0.00015640567
29	0x3a74eb57	0.00093429297
30	0x39b84002	0.00035142904
31	0xb98b7d5d	-0.0002660555

features.1.weight f4 [32]
0	0x3f899e04	1.0751348
1	0x3f665587	0.89974254
2	0x3f9112e9	1.1333896
3	0x3f722eb9	0.94602543
4	0x3f6ef97a	0.9334942
5	0x3f6b56d0	0.9192934
6	0x3f8d29ba	1.1028359
7	0x3f8723ce	1.0557802
8	0x3f6746f1	0.90342623
9	0x3f8bd491	1.0924245
10	0x3f71f789	0.94518334
11	0x3f6ef389	0.93340355
12	0x3f400570	0.75008297
13	0x3f5f28f5	0.8717187
14	0x3f7739f3	0.965728
15	0x3f809420	1.0045204
16	0x3f58e842	0.847294
17	0x3f65643d	0.89606076
18	0x3f62819e	0.8847903
19	0x3f627cbc	0.8847158
20	0x3f8ab967	1.083783
21	0x3f5e2b52	0.8678485
22	0x3f6e2abb	0.9303395
23	0x3f6000c4	0.8750117
24	0x3f90ba4f	1.1306857
25	0x3f473b05	0.7782443
26	0x3fa9d5e8	1.3268404
27	0x3f6114f5	0.879226
28	0x3f581701	0.844101
29	0x3f80b610	1.0055561
30	0x3f4e8b11	0.8068095
31	0x3f6586d2	0.89658844

features.1.bias f4 [32]
0	0xbdc430fd	-0.09579656
1	0xbe3e1639	-0.18563165
2	0xbde8c898	-0.11366385
3	0xbdab2246	-0.083561465
4	0xbe8189e3	-0.25300512
5	0xbd82e012	-0.06390394
6	0x3e118bc5	0.14213474
7	0xbdf2bead	-0.11852775
8	0xbe85ed7a	-0.26157743
9	0xbe163398	-0.14668119
10	0xbd41de60	-0.047331214
11	0xbce54687	-0.027987732
12	0x3e6b4043	0.22973733
13	0xbe0c65dd	-0.13710733
14	0x3cdd150d	0.026987577
15	0xbda474c0	-0.08030081
16	0xbe23b918	-0.15988576
17	0xbed8af3d	-0.42321196
18	0xbe5a7e19	-0.21337165
19	0xbec76fd5	-0.3895251
20	0x3da89682	0.08231832
21	0x3c4d6878	0.012537114
22	0xbe0e25a8	-0.13881552
23	0xbe5bb7af	-0.21456788
24	0xbe0f0996	-0.139685
25	0xbe4b020d	-0.19825001
26	0x3e9d8892	0.30768257
27	0xbe3712b8	-0.17878234
28	0xbd142ed0	-0.036177456
29	0xbe1c2740	-0.15249348
30	0xbe1adb19	-0.15122642
31	0xbe34f7d3	-0.17672662

features.1.running_mean f4 [32]
0	0xbd711437	-0.05885717
1	0xbcb74054	-0.022369541
2	0x3ea1513d	0.31507292
3	0xbe4861da	-0.19568577
4	0x3df840fc	0.1212177
5	0xbdb840e2	-0.089967504
6	0x3d78510a	0.06062416
7	0xb983ab95	-0.00025114106
8	0xbf1d17bb	-0.61364335
9	0xbe029fea	-0.12756315
10	0xbd9f3dd9	-0.077754684
11	0xbda87103	-0.0822468
12	0x3ebf55df	0.37370202
13	0xbea5aefb	-0.32360062
14	0xbd9c78a7	-0.076402
15	0x3eb3d42c	0.35122812
16	0xbdc603f4	-0.09668723
17	0xbdcdc83e	-0.10047959
18	0xbe9e7137	-0.3094575
19	0xbed20f22	-0.4102717
20	0xbd7334ee	-0.05937665
21	0x3db9e061	0.09076
22	0xbea54737	-0.32280895
23	0xbecc2f45	-0.39879814
24	0x3e067222	0.13129476
25	0xbefcd5c8	-0.49381852
26	0x3d409e6d	0.047026087
27	0xbe42b6d5	-0.19015057
28	0x3ead135e	0.33803838
29	0x3edf66d2	0.43633133
30	0xbe948a34	-0.2901169
31	0x3e391e45	0.18077953

features.1.running_var f4 [32]
0	0x3e59b8bf	0.21261881
1	0x3eae066f	0.33989283
2	0x3fc173d7	1.5113477
3	0x3ead804e	0.3388695
4	0x3dfe38ce	0.124131784
5	0x3e89ee78	0.2693975
6	0x3e79fcdf	0.24412869
7	0x3e816f78	0.25280356
8	0x406331dd	3.5499184
9	0x3e5e78a6	0.21725711
10	0x3e53f296	0.20698008
11	0x3dcb749c	0.09934351
12	0x4020f0d1	2.5146983
13	0x40056639	2.0843642
14	0x3eb7cdf5	0.3589932
15	0x3fe6f9bb	1.8044962
16	0x3f897321	1.073826
17	0x3dd3dcf6	0.10344879
18	0x40169e7b	2.3534229
19	0x3fce0115	1.609408
20	0x3e02308f	0.12713836
21	0x3efeba4f	0.49751517
22	0x401e5ab5	2.4742863
23	0x400470f6	2.0693946
24	0x3e97fe34	0.2968613
25	0x400fb9c9	2.2457144
26	0x3d50a65b	0.0509399
27	0x3fe25d62	1.7684748
28	0x403c67b0	2.9438286
29	0x400f21df	2.2364423
30	0x3fdcd865	1.7253538
31	0x3f652e3f	0.8952369

features.4.weight f4 [32, 32, 3, 3]
0	0xbe3aff21	-0.18261386
1	0xbe7a2cf9	-0.24431218
2	0xbe03a239	-0.12854852
3	0xbe5568c0	-0.2084074
4	0xbe6dce47	-0.2322322
5	0xbe42bd37	-0.19017492
6	0xbdbc8ccc	-0.092065424
7	0xbe31f902	-0.17380145
8	0xbdc57577	-0.09641545
9	0x3ca43bf2	0.020048115
10	0x3db2e9b6	0.08735983
11	0xbce5267c	-0.027972452
12	0x3de78fdb	0.11306735
13	0x3d88470a	0.066541746
14	0x3c840f28	0.016120508
15	0x3d0b1da4	0.033963814
16	0x3d57df8f	0.052703436
17	0xbc55bd0a	-0.013045559
18	0xbed924b5	-0.42410818
19	0xbedb7b9d	-0.42867747
20	0xbeaa0daa	-0.3321355
21	0xbed29443	-0.4112874
22	0xbeaf7c64	-0.3427459
23	0xbe9ff898	-0.3124435
24	0xbea11a10	-0.31465197
25	0xbe956e2c	-0.29185617
26	0xbe5a8fed	-0.21343966
27	0xbd6b1578	-0.05739352
28	0xbd8977f3	-0.067123316
29	0xbe044f0d	-0.1292078
30	0x3c5c3c01	0.01344204
31	0x3bd583fe	0.006515979
32	0xbdacc1ec	-0.08435425
33	0x3c4feb8b	0.012690435
34	0x3c25c1d5	0.010117014
35	0xbd4a90c9	-0.049454484
36	0xbf0febc8	-0.5621915
37	0xbecb634c	-0.39724195
38	0xbe8df9fa	-0.2772978
39	0xbeec7460	-0.46182537
40	0xbec4a41d	-0.38406458
41	0xbea35103	-0.31897745
42	0xbef15e2f	-0.4714217
43	0xbec7e45c	-0.39041412
44	0xbe82f558	-0.25577807
45	0xbd60e3f3	-0.05490489
46	0x3c88b704	0.016688831
47	0xbd69b4d2	-0.05705721
48	0xbd8c7827	-0.06858855
49	0x3c763555	0.015027364
50	0xbccf99c9	-0.025341885
51	0xbbaffc20	-0.005370632
52	0x3ca21ed4	0.01979009
53	0x3b6fc765	0.0036587354
54	0xbdc2c994	-0.09511104
55	0xbe12ac80	-0.14323616
56	0x3daf3079	0.08554167
57	0xbd10ce31	-0.03535289
58	0xbc177b2f	-0.009245678
59	0x3ddc382e	0.10752903
60	0xbdc1527e	-0.09439562
61	0xbce690b0	-0.028145164
62	0x3d9d96ff	0.07694816
63	0xbd4c543d	-0.049885023
64	0xbd9fe454	-0.07807222
65	0x3dce9ce2	0.10088517
66	0xbda080cc	-0.07837066
67	0xbcfc5da4	-0.03080637
68	0x3dc7a9ac	0.09749159
69	0xbd051c45	-0.032497663
70	0x3d03f33e	0.032214396
71	0x3dd11292	0.1020862
72	0xbc9a7eba	-0.018859256
73	0xbceece4b	-0.029151103
74	0xbdb95bf8	-0.09050745
75	0x3db1a8fa	0.08674808
76	0xbb802976	-0.0039111925
77	0xbdac87ca	-0.08424337
78	0x3d4b5d8e	0.049649768
79	0x3db3a7a5	0.0877221
80	0xbd804da0	-0.06264806
81	0xbd538494	-0.05164011
82	0xbd483824	-0.048881665
83	0xbcde7113	-0.027153527
84	0x3c50d759	0.012746655
85	0xbd2888da	-0.041146137
86	0xbdadd937	-0.08488696
87	0xbcbeeb03	-0.023305422
88	0xbc0c148c	-0.008549821
89	0xbd09a041	-0.033600096
90	0xbda37ca2	-0.07982756
91	0xbd97b2cd	-0.074071504
92	0xbd90ac0c	-0.07064065
93	0x3c8a5c76	0.016889792
94	0xbd563656	-0.052297913
95	0xbd6bf7b6	-0.057609282
96	0x3ca5d302	0.020242218
97	0xbd872acd	-0.065999605
98	0x3cc1fb9c	0.023679547
99	0x3ddad28c	0.1068469
100	0x3c4217c8	0.01184649
101	0x3d511ce6	0.05105295
102	0x3e11d6e8	0.14242136
103	0x3d48a4a9	0.048985157
104	0x3d9601c5	0.07324556
105	0x3e4440c3	0.1916533
106	0x3dc81e13	0.09771361
107	0x3cc38c48	0.023870602
108	0xbe3c3889	-0.18380941
109	0xbd9b1121	-0.075716265
110	0xbdfed802	-0.12443544
111	0xbdf91f96	-0.12164228
112	0xbd4b04f9	-0.04956529
113	0xbceca86c	-0.028888904
114	0xbbaa8d09	-0.005204801
115	0x3c2947f0	0.010332093
116	0xbdb2a029	-0.087219544
117	0x3db934f8	0.09043306
118	0x3d185be5	0.037197012
119	0x3d4542d1	0.048159424
120	0x3e048c06	0.1294404
121	0x3df34b26	0.11879568
122	0x3d670c64	0.0564083
123	0x3e5b669b	0.2142586
124	0x3e290521	0.16505863
125	0x3e0fcecc	0.1404373
126	0x3d06549a	0.032795526
127	0xbd3d2b63	-0.046183955
128	0xbd18a9ba	-0.03727124
129	0xbc85cd82	-0.016333345
130	0x3d068519	0.032841776
131	0xbd5784f0	-0.052617013
132	0xbbd539fe	-0.0065071573
133	0xbd92664e	-0.07148419
134	0x3c82e781	0.01597953
135	0xbedfd899	-0.43719938
136	0xbed4e985	-0.4158441
137	0xbeafe891	-0.34357122
138	0xbeb857bc	-0.36004436
139	0xbeb4502c	-0.35217416
140	0xbe51765d	-0.20455308
141	0xbe89b441	-0.26895335
142	0xbe92408f	-0.2856488
143	0xbe40fd87	-0.18846713
144	0xbc51ea71	-0.012812243
145	0xbc9809d9	-0.018559383
146	0xbd2e8dd4	-0.042615727
147	0x3d69538f	0.056964453
148	0x3dc949f1	0.09828556
149	0x3d23e0cc	0.040009305
150	0x3e21c34c	0.15797156
151	0x3e26ab70	0.16276336
152	0x3d8d0989	0.06886584
153	0x3c04ef01	0.008113624
154	0xbd89f9a5	-0.06737069
155	0xbde0ff00	-0.109861374
156	0x3cb6594a	0.022259373
157	0xbd888ce6	-0.06667499
158	0xbd8c97d2	-0.06864895
159	0xbd5e71b5	-0.05430766
160	0x3c20ce91	0.009814874
161	0xbdbd859e	-0.09254001
162	0x3d85a2e8	0.065252125
163	0x3dbeae7b	0.09310623
164	0xbca44b68	-0.020055488
165	0x3e0a1d55	0.13487752
166	0x3d4c5bbc	0.049892172
167	0xbc05bada	-0.008162225
168	0x3dd509dc	0.10402271
169	0x3e10cc80	0.1414051
170	0x3ddada29	0.10686142
171	0xbc375782	-0.011190297
172	0xbcb87376	-0.022515994
173	0xbce6dcc8	-0.028181449
174	0x3d8faf6a	0.070158795
175	0x3d51eec5	0.0512531
176	0xbd447f31	-0.04797286
177	0x3d5cb64b	0.053884786
178	0x3da19a68	0.07890779
179	0x3d615c39	0.05501959
180	0x3dc2af6f	0.095061176
181	0x3d8efbe1	0.06981636
182	0xbbd44a67	-0.006478596
183	0x3cfa58f4	0.030559994
184	0x3d67eacc	0.056620404
185	0x3ca36def	0.019949881
186	0x3bdb3a1a	0.006690276
187	0x3d097ed4	0.03356822
188	0x3dceeaa6	0.101033494
189	0xbcc6a7e9	-0.024249988
190	0x3d797ddd	0.06091105
191	0x3d58ffa6	0.05297818
192	0x3acbb939	0.0015542872
193	0x3d02d07c	0.031937107
194	0xbc707fc3	-0.014678898
195	0x3d38e076	0.045135938
196	0x3db98f14	0.09060493
197	0x3db14973	0.086565875
198	0x3d2af822	0.041740544
199	0x3d1c0b4c	0.03809671
200	0x3d11b0f2	0.03556914
201	0x3d9750c1	0.073884495
202	0x3d6223fb	0.055210095
203	0x3d37a2c8	0.044832975
204	0x3dce6bf1	0.10079182
205	0x3e0df260	0.1386199
206	0x3d7a1e4e	0.061064057
207	0x3da12d65	0.078699864
208	0x3d9fbb73	0.07799425
209	0x3c8ad5c7	0.01694764
210	0x3e05b40e	0.13056967
211	0x3c1c8008	0.009552009
212	0xbd5023dd	-0.050815452
213	0x3db7a902	0.089677826
214	0x3e12c7f0	0.14334083
215	0xbc488d73	-0.012240755
216	0xbedce6f2	-0.43144947
217	0xbec84728	-0.39116788
218	0xbe726e44	-0.23674875
219	0xbec1806f	-0.377933
220	0xbe9aa02b	-0.30200323
221	0xbe540266	-0.2070404
222	0xbe98b112	-0.29822594
223	0xbe96db49	-0.29464176
224	0xbe0ff4ea	-0.14058271
225	0xbd853b3d	-0.065054394
226	0x3cd11de7	0.025526954
227	0xbcabebf7	-0.02098654
228	0x3d932e19	0.07186527
229	0xbc411c41	-0.011786521
230	0xbd985c49	-0.07439477
231	0x3c49c1bd	0.012314257
232	0x3dd00037	0.10156291
233	0xbd2e789e	-0.0425955
234	0xbee2ce45	-0.44297996
235	0xbee54389	-0.44778088
236	0xbecdbd39	-0.40183428
237	0xbecfcc59	-0.40585592
238	0xbeb7fb47	-0.35933897
239	0xbec980eb	-0.3935617
240	0xbebc39aa	-0.36762744
241	0xbec28460	-0.3799162
242	0xbeb998b7	-0.36249325
243	0x3de4a8c9	0.11165006
244	0x3cad6573	0.021166539
245	0x3d6a2a5e	0.05716931
246	0x3de1a690	0.110180974
247	0x3dd0b83c	0.1019139
248	0x3d3d22ce	0.04617577
249	0x3e1ba9ca	0.15201488
250	0x3db4c165	0.088259496
251	0x3d2c51d6	0.042070232
252	0xbe2102a5	-0.15723665
253	0xbe0d42d0	-0.13795018
254	0xbdf3a079	-0.11895842
255	0xbd91ab5d	-0.07112763

features.4.bias f4 [32]
0	0x398c97b5	0.0002681591
1	0x382fddf1	4.192995e-05
2	0x390fa480	0.00013698824
3	0x3907bd3b	0.00012945097
4	0xb89404b5	-7.058067e-05
5	0x3a1442ff	0.0005655735
6	0xb7ca4bcf	-2.4115578e-05
7	0x39e47806	0.00043576973
8	0x3899e76b	7.3387135e-05
9	0x36a5c9a1	4.940856e-06
10	0xb9539c8b	-0.00020180845
11	0x38b49d02	8.612314e-05
12	0x39a3e90e	0.00031263422
13	0xb9896d96	-0.00026212324
14	0x38081f53	3.24541e-05
15	0x391e607b	0.00015103996
16	0xb94bd566	-0.00019439086
17	0xb8a77d7d	-7.9865546e-05
18	0x37c9e16e	2.4066041e-05
19	0xb8776030	-5.897897e-05
20	0xb94650f8	-0.00018912915
21	0xb7824f52	-1.5534144e-05
22	0xb9c2d496	-0.00037160952
23	0xb7b22a02	-2.1238815e-05
24	0x370477e1	7.895725e-06
25	0xb6e268ad	-6.7475107e-06
26	0x38857a7a	6.364747e-05
27	0xb8907a7a	-6.889268e-05
28	0xb82d9f36	-4.139469e-05
29	0xb7e90f46	-2.7782877e-05
30	0xba0a2397	-0.00052695855
31	0xbadd3cdb	-0.0016879098

features.5.weight f4 [32]
0	0x3f619d52	0.88130677
1	0x3f5bb5d2	0.8582431
2	0x3f2cd9a0	0.6751957
3	0x3f7cdb2d	0.98771936
4	0x3f29a553	0.6626789
5	0x3f761dd1	0.96139246
6	0x3f5fe09b	0.87452096
7	0x3f6ff91f	0.93739504
8	0x3f413606	0.7547306
9	0x3f67bae7	0.90519565
10	0x3f7443cb	0.95415944
11	0x3f5fa9ff	0.8736877
12	0x3f7365b1	0.95077044
13	0x3f6e6345	0.93120223
14	0x3f62d4fd	0.88606244
15	0x3f6469a2	0.8922368
16	0x3f7c9df5	0.98678523
17	0x3f8097d0	1.004633
18	0x3f4a713f	0.7907905
19	0x3f59a55c	0.85017943
20	0x3f6466e8	0.8921952
21	0x3f4269ba	0.75942576
22	0x3f7ab7c0	0.9793663
23	0x3f90eb21	1.1321756
24	0x3f40e62b	0.7535121
25	0x3f55e250	0.8354845
26	0x3f895939	1.0730354
27	0x3f806c81	1.0033113
28	0x3f7b006f	0.98047537
29	0x3f43e616	0.7652296
30	0x3f7dcb88	0.9913869
31	0x3f7cd8f8	0.9876857

features.5.bias f4 [32]
0	0xbd931648	-0.07181984
1	0xbe551780	-0.20809746
2	0xbe3895f9	-0.1802596
3	0x3d014f00	0.03156948
4	0xbdeb52f4	-0.114904314
5	0xbe7e9be1	-0.2486415
6	0xbdb76f69	-0.08956797
7	0xbdbe7ee5	-0.09301547
8	0xbd48870f	-0.048956927
9	0x3d1d988b	0.038475554
10	0xbdf00516	-0.1171972
11	0xbe540c94	-0.20707923
12	0xbebbf162	-0.36707598
13	0x3da0b594	0.07847133
14	0xbe4c57bc	-0.19955343
15	0xbd194f48	-0.037429124
16	0xbd944658	-0.072399795
17	0xb92cab46	-0.00016467003
18	0xbe226bee	-0.15861484
19	0xbe651fc2	-0.22375396
20	0xbe293f5c	-0.16528076
21	0xbe1825bf	-0.14858149
22	0xbb1343fa	-0.0022470937
23	0xbec886f3	-0.39165458
24	0xbe60c11a	-0.21948662
25	0xbc438525	-0.0119336
26	0xbf274376	-0.6533731
27	0x3bb72d60	0.005590126
28	0xbd026681	-0.031836037
29	0xbdad9022	-0.08474757
30	0xbdbfd8d9	-0.09367532
31	0xbddeeacd	-0.108846284

features.5.running_mean f4 [32]
0	0xc10e235f	-8.8836355
1	0xbfae2166	-1.3603942
2	0xc0da4b9e	-6.8217306
3	0xc0b40ca7	-5.6265445
4	0xc0cba19e	-6.3634787
5	0xc0e507a4	-7.1571827
6	0xc0d24b66	-6.571704
7	0xc12ae937	-10.681937
8	0xc1307a3c	-11.029842
9	0xc10c292a	-8.76005
10	0xc11616e0	-9.380585
11	0xbfdcfbd4	-1.7264352
12	0xc082bad7	-4.0853076
13	0xc0f5c889	-7.6807294
14	0xc11bd2d7	-9.738975
15	0xc119cce0	-9.612518
16	0x3f3d9a09	0.74063164
17	0xc09ac5e8	-4.8366585
18	0xc118fcbe	-9.561705
19	0xc11b16b3	-9.693042
20	0xc10860f2	-8.523668
21	0xc115802d	-9.343793
22	0xc0a0c413	-5.023935
23	0xbf2f358a	-0.6844107
24	0xc0f94628	-7.789814
25	0xc113045d	-9.188565
26	0xc0340443	-2.81276
27	0xc0db4f8b	-6.85346
28	0xc0859bff	-4.1752925
29	0xc1179faa	-9.4764805
30	0xc0e3f6f2	-7.1238947
31	0xc0ead431	-7.3384023

features.5.running_var f4 [32]
0	0x42e207f0	113.0155
1	0x4192dba7	18.357252
2	0x429d3dfe	78.62108
3	0x426b2899	58.789646
4	0x42794dde	62.326042
5	0x4234a0ce	45.157036
6	0x429fd55c	79.91672
7	0x429373ba	73.72603
8	0x431736fe	151.21481
9	0x42c2793f	97.23681
10	0x4281d868	64.92267
11	0x4193049b	18.377249
12	0x41998296	19.188763
13	0x42dc4940	110.14307
14	0x426eeffc	59.73436
15	0x42fc1612	126.043106
16	0x423b9858	46.898773
17	0x428611c7	67.03472
18	0x42cd0d17	102.525566
19	0x42866e2c	67.21518
20	0x4246461a	49.56846
21	0x4272d12f	60.70428
22	0x42584d7c	54.07567
23	0x409b78d7	4.858501
24	0x42993192	76.59682
25	0x4304a681	132.6504
26	0x40e8191e	7.253066
27	0x42896984	68.706085
28	0x424e5361	51.581425
29	0x4317cc23	151.79741
30	0x42246107	41.094753
31	0x4161793f	14.092101

features.8.weight f4 [32, 32, 3, 3]
0	0x3dab7854	0.0837256
1	0xbd213c59	-0.039364193
2	0xbb8a359e	-0.0042178174
3	0x3d2e4b0d	0.042552043
4	0xbe174d98	-0.14775693
5	0xbc80fa7a	-0.015744437
6	0xbcb5a343	-0.022172576
7	0xbdda3de2	-0.106563345
8	0xbc395fed	-0.011314374
9	0x3c606c21	0.013697655
10	0x3de090ec	0.10965142
11	0xbd10111a	-0.03517256
12	0xbc22cca1	-0.009936483
13	0x3e38cec0	0.18047619
14	0x3d3f419b	0.046693426
15	0x3d282790	0.041053355
16	0x3e1c103a	0.15240565
17	0x3b98b12e	0.0046597933
18	0x3dca304c	0.09872493
19	0xbdadd2b5	-0.08487455
20	0x3cf8de89	0.03037955
21	0x3d45bee0	0.048277736
22	0xbe3064e3	-0.17225985
23	0xbd5a7fe1	-0.05334461
24	0x3ce35603	0.027750975
25	0xbddf7d74	-0.109126
26	0xbd65f047	-0.05613735
27	0x3d96fe6f	0.07372748
28	0x3e9eb303	0.3099595
29	0x3cc473da	0.023981024
30	0x3e7a8575	0.24464972
31	0x3f2d76cf	0.6775941
32	0x3e16b1f0	0.14716315
33	0x3e23016f	0.15918516
34	0x3efa2bb9	0.48861483
35	0x3d974e7c	0.073880166
36	0xbdc34e88	-0.09536463
37	0xbd85d841	-0.06535388
38	0x3be584f8	0.0070043765
39	0xbdfce19e	-0.123477206
40	0xbdefe09c	-0.11712763
41	0xbcb44757	-0.022006674
42	0xbd5291c0	-0.05140853
43	0xbdf0871c	-0.1174452
44	0xbd74ec0f	-0.059795436
45	0xbe42a395	-0.19007714
46	0xbdf4c07a	-0.119507745
47	0xbe0f10c7	-0.13971244
48	0xbe39fa4e	-0.1816189
49	0xbe10fd13	-0.1415904
50	0xbe273ab3	-0.16330986
51	0xbe3faf01	-0.18719102
52	0xbe63d507	-0.22249232
53	0xbe5b4037	-0.21411215
54	0xbc6db5df	-0.0145086935
55	0xbda06253	-0.07831254
56	0xbd6826e0	-0.0566777
57	0xbdb8a1c3	-0.090152286
58	0xbd8949ff	-0.06703567
59	0xbd9f8b8d	-0.07790289
60	0xbd68ddac	-0.056852028
61	0xbd4c9a1a	-0.04995165
62	0xbce49d25	-0.027906964
63	0x3c5238ed	0.012830955
64	0xbcb0ea0f	-0.021595983
65	0xbc68a095	-0.014198442
66	0x3d0ba559	0.034093235
67	0xbd8473ab	-0.064673744
68	0xbd6aca77	-0.05732199
69	0xbcca806e	-0.024719443
70	0xbc6293c8	-0.013829179
71	0xbcbe0605	-0.02319623
72	0x3d5995e7	0.053121474
73	0xbd8b5e14	-0.06805053
74	0xbc884ab3	-0.016637182
75	0xbc6a2416	-0.01429083
76	0xbdbd2e3f	-0.09237336
77	0x3cd5e2ad	0.026109064
78	0xbd109f0f	-0.03530794
79	0xbd8e04ad	-0.069344856
80	0xbcd22e79	-0.025656926
81	0xbd935a29	-0.07194931
82	0x3e65f682	0.22457317
83	0xbda1e804	-0.079055816
84	0x3d51f5e5	0.051259894
85	0x3eeeea43	0.46663103
86	0x3dcd9bc2	0.10039474
87	0x3d88d970	0.06682098
88	0x3ee63c40	0.44967842
89	0x3cba63af	0.022752611
90	0xbc9d15cc	-0.019175433
91	0xbd22432f	-0.039614853
92	0x3c3e44af	0.011613055
93	0xbceaf7b2	-0.028682563
94	0xbd0ae453	-0.033909153
95	0xbd9a9e90	-0.07549775
96	0x3d3592a8	0.044329315
97	0xbce17009	-0.027519243
98	0x3d4ddbc4	0.050258413
99	0xbc78bb4c	-0.015181374
100	0x3d3e9ef8	0.046538323
101	0xbd527698	-0.05138263
102	0xbc089f7a	-0.008338803
103	0x3d7b50eb	0.061356466
104	0x3d92b1d7	0.071628265
105	0x3d019e84	0.031645313
106	0x3dd56cd1	0.10421146
107	0x3c5a496e	0.013323171
108	0x3d99282a	0.07478364
109	0x3d0eadf5	0.034833867
110	0xbbbfddb9	-0.005855289
111	0xba8bbd7a	-0.0010661327
112	0xbcde39ff	-0.027127264
113	0xbd0f2274	-0.034944966
114	0x3d77d8bb	0.060509425
115	0xbdb21d6c	-0.08697018
116	0xbcfa93fd	-0.030588144
117	0xbd0ee8b1	-0.03488988
118	0x3e95d9e6	0.29267806
119	0x3d156603	0.03647424
120	0x3e7fea27	0.24991666
121	0x3f27f3d9	0.65606457
122	0x3e8c0c32	0.27353054
123	0x3e227400	0.15864563
124	0x3f1bfea9	0.60935456
125	0x3e040bad	0.12895079
126	0x3c4f3325	0.012646471
127	0xbd41e6c5	-0.04733922
128	0x3d02225f	0.03177106
129	0x3b8e9a32	0.0043518776
130	0xbda355d3	-0.07975354
131	0x3cca4ce9	0.024694877
132	0x3d53d2e2	0.051714785
133	0xbda5f1fa	-0.08102794
134	0x3be1e9b3	0.006894314
135	0x3d0c926b	0.034319323
136	0x3cc806b1	0.024417253
137	0x3b9a0a8e	0.0047009652
138	0xbbca1abe	-0.0061677387
139	0xbd3c7290	-0.046007693
140	0xbcc705bc	-0.024294727
141	0x3d472ba0	0.04862559
142	0xbdb6b1ca	-0.08920629
143	0xbccaad9e	-0.02474099
144	0xbcf78306	-0.030213844
145	0x3cd6bdfd	0.02621364
146	0x3d526d00	0.05137348
147	0x3c0ef9bb	0.008726533
148	0x3db12072	0.086487666
149	0x3d931c32	0.07183112
150	0x3d98db65	0.07463721
151	0x3cf08b40	0.029363275
152	0x3d4a637c	0.049411282
153	0xbc88fbbb	-0.016721597
154	0x3eb8d085	0.36096588
155	0xbd02144d	-0.03175764
156	0x3e75267f	0.23940466
157	0x3f22a36e	0.63530624
158	0x3e0e2300	0.13880539
159	0x3e07658f	0.13222335
160	0x3efd0d70	0.49424314
161	0x3d8acb75	0.067770876
162	0x3c5b5a71	0.013388262
163	0xbcbc4c9f	-0.022985755
164	0x3d51aea8	0.051191956
165	0xbd800f2e	-0.06252895
166	0xbdfb4fc3	-0.12271073
167	0xbd2dce79	-0.042433236
168	0x3cdbeb79	0.02684568
169	0xbd0dcf0e	-0.03462129
170	0xbd4fabd8	-0.050700992
171	0x3d47dbd8	0.048793644
172	0x3c71f691	0.014768259
173	0xbc7f7b4d	-0.015593362
174	0xbd6b4eb9	-0.057448123
175	0xbde008d9	-0.109391876
176	0xbd746be2	-0.059673198
177	0x3aeb965e	0.001797389
178	0xbd50e7c0	-0.051002264
179	0x3cd1e28e	0.025620725
180	0xbc47cb0e	-0.012194408
181	0xbd8c390f	-0.068468206
182	0xbd1d9398	-0.038470834
183	0x3ce58004	0.028015144
184	0xbd000580	-0.031255245
185	0xbccf0631	-0.025271507
186	0x3ccb18c3	0.02479208
187	0xbd0ebab2	-0.034846015
188	0xbc78a14b	-0.015175174
189	0x3d689f1b	0.05679236
190	0xbb507bb2	-0.003181201
191	0x3d01896e	0.031625204
192	0x3d13c454	0.036075905
193	0xbd7d896f	-0.061898645
194	0xbd946f54	-0.07247797
195	0xbc457115	-0.012050887
196	0xb9116dce	-0.00013869183
197	0xbc95ad46	-0.0182711
198	0xbe233c58	-0.15940988
199	0x3e0b2173	0.13586979
200	0xbdfb85cf	-0.12281381
201	0x3affdfc5	0.0019521645
202	0x3ebe9e34	0.37230074
203	0x3cd0530e	0.025430229
204	0xbca2c123	-0.019867485
205	0x3ea099da	0.3136738
206	0xbca821f7	-0.020524008
207	0xbdf6d333	-0.12052002
208	0xbcf77cff	-0.03021097
209	0xbd44da59	-0.048059795
210	0xbc8c4e4a	-0.017127175
211	0x3da62e93	0.08114352
212	0x3bf213aa	0.007387598
213	0xbd9b1356	-0.075720474
214	0x3dca0645	0.09864477
215	0xbc674168	-0.014114715
216	0x3d441b0b	0.047877353
217	0xbcec8f6e	-0.028876986
218	0xbc5f2435	-0.013619472
219	0x3c9095f6	0.017649632
220	0xbdc8c7b8	-0.09803718
221	0x3d127b25	0.03576197
222	0xbb62af43	-0.0034589327
223	0xbddda0d8	-0.10821694
224	0x3d6ffeb0	0.0585925
225	0xbe273a15	-0.1633075
226	0x3ea2872b	0.3174375
227	0xbcad8652	-0.021182213
228	0x3e07f540	0.13277149
229	0x3f1c5d3f	0.6107978
230	0x3e284952	0.1643422
231	0x3dac4e19	0.084133334
232	0x3f11767b	0.5682141
233	0x3d12832c	0.035769626
234	0x3c8376b1	0.016047807
235	0xbb9b3e6e	-0.004737667
236	0x3e02d165	0.1277519
237	0xbdc1f203	-0.09469988
238	0xbdc7b893	-0.097520016
239	0x3c9f131c	0.019418292
240	0xbe66c8b3	-0.22537498
241	0xbe1849e7	-0.14871942
242	0xbda61590	-0.081095815
243	0xbdd3c5c6	-0.10340457
244	0x3dbf39ce	0.09337197
245	0xbdfb9f3d	-0.12286232
246	0x3dffc3b9	0.12488503
247	0x3ee40f06	0.44542712
248	0x3d67a1cd	0.05655079
249	0x3da13ab1	0.078725226
250	0x3eca0261	0.3945494
251	0xbd80fde4	-0.06298426
252	0xbdc08ca8	-0.09401828
253	0x3e307a36	0.1723412
254	0xbdcd8ac4	-0.10036233
255	0x3d4e3242	0.0503409

features.8.bias f4 [32]
0	0x3a42ea1d	0.00074353983
1	0x3a988175	0.0011635261
2	0x3b3af65d	0.0028528192
3	0x38164029	3.582254e-05
4	0x3b90d18c	0.004419511
5	0x3bb2b698	0.005453896
6	0x3ab42c71	0.0013746155
7	0x39875589	0.00025812935
8	0x39a7081f	0.00031858773
9	0xbb751d26	-0.0037401407
10	0x3a127fbe	0.0005588493
11	0x3ad7c6b6	0.0016462419
12	0xb9506d71	-0.00019877196
13	0x39d5ea6b	0.0004080118
14	0xbb1e8506	-0.0024188175
15	0x3a437eee	0.00074575737
16	0x3aded195	0.0016999716
17	0xba71c35c	-0.0009222531
18	0xba27379d	-0.00063788315
19	0x382994ff	4.0431503e-05
20	0xba9a742a	-0.0011783887
21	0xbaeb805b	-0.001796733
22	0x3a4946b5	0.00076780777
23	0xba1e43e4	-0.0006037338
24	0x3a395550	0.00070699025
25	0x39cb0e34	0.0003872976
26	0xbb3555f3	-0.0027669638
27	0x3b14d1cf	0.0022708063
28	0x38f0c3ff	0.00011480599
29	0xb90df02c	-0.00013536279
30	0x3a8df18c	0.0010829433
31	0x37dfb795	2.6669159e-05

features.9.weight f4 [32]
0	0x3fa04e0a	1.2523816
1	0x3fa1f917	1.2654141
2	0x3fa1a5be	1.2628706
3	0x3fa12383	1.2588962
4	0x3fafaff6	1.3725574
5	0x3fd794de	1.6842306
6	0x3fc789d2	1.5588934
7	0x3fa0093d	1.2502819
8	0x3f9fcbbd	1.2484051
9	0x3fa824ac	1.3136191
10	0x3fa09af8	1.2547293
11	0x3fa2e289	1.2725383
12	0x3fa05653	1.2526344
13	0x3fa3959f	1.2780036
14	0x3fa12151	1.2588292
15	0x3fa22e27	1.2670335
16	0x3fd24143	1.6426166
17	0x3fa0a80f	1.2551287
18	0x3fcab006	1.5834968
19	0x3fa27b51	1.2693883
20	0x3fa295dc	1.2701983
21	0x3fa058cf	1.2527102
22	0x3fae798e	1.3630846
23	0x3f9f82ca	1.2461789
24	0x3fa0acaf	1.2552699
25	0x3fa020fe	1.2510068
26	0x3fcc0ea7	1.5941972
27	0x3fa0d1df	1.2564048
28	0x3fa493b0	1.2857571
29	0x3fa1f55b	1.2653002
30	0x3fb667d5	1.4250437
31	0x3fa01c32	1.2508605

features.9.bias f4 [32]
0	0x3eb5a06d	0.35473958
1	0x3ea86f2e	0.32897323
2	0x3ec723b2	0.3889442
3	0x3ec7ebb0	0.39047003
4	0x3ebe7f0d	0.37206307
5	0x3edd6024	0.43237412
6	0x3ec3002c	0.3808607
7	0x3ebc6a9b	0.36800084
8	0x3eaec66f	0.34135768
9	0x3eaee713	0.3416067
10	0x3ebd5368	0.36977696
11	0x3ecc6d9f	0.39927384
12	0x3eb3924a	0.35072547
13	0x3eb3e50a	0.3513568
14	0x3eb0a769	0.34502724
15	0x3ecbeb0d	0.39827767
16	0x3e40bcfd	0.18822093
17	0x3ec36b2f	0.38167712
18	0x3e6cb4fa	0.23115912
19	0x3eca2a64	0.39485466
20	0x3eccfeac	0.4003805
21	0x3ec4bc41	0.38424876
22	0x3ed0e04e	0.4079613
23	0x3ead7424	0.3387767
24	0x3eafc81f	0.34332368
25	0x3eb128a9	0.34601334
26	0x3e461218	0.1934284
27	0x3ec10293	0.37697276
28	0x3eb90578	0.36136985
29	0x3eae7c50	0.34079218
30	0x3ea38702	0.3193894
31	0x3ec6a200	0.3879547

features.9.running_mean f4 [32]
0	0x4078804f	3.8828313
1	0xbe543372	-0.2072275
2	0xc03d951a	-2.9622254
3	0x3fa09711	1.2546102
4	0x3f4ee528	0.80818415
5	0xbf89973a	-1.0749276
6	0xc01c5b77	-2.4430826
7	0xbf7c0752	-0.9844867
8	0x3fe1b122	1.7632182
9	0xbfa41cec	-1.2821326
10	0x406b2af5	3.674497
11	0xc0c1ad5b	-6.0524116
12	0x3ff0d216	1.8814113
13	0xbfc0194a	-1.5007718
14	0xbf80b394	-1.0054803
15	0xc05035c6	-3.253282
16	0xbfc9dc36	-1.5770328
17	0xc0535fd0	-3.302723
18	0xbe92b027	-0.2865002
19	0x407ed1f4	3.9815645
20	0x4006b652	2.104878
21	0xc0488e7a	-3.133696
22	0xc08c36d8	-4.381695
23	0x3ff86557	1.9405926
24	0x407d12c7	3.954271
25	0x3fd6f008	1.6792002
26	0xbfcbfed8	-1.5937147
27	0xc008d9f2	-2.1383023
28	0xc00edb5f	-2.2321393
29	0xbf2e9920	-0.682024
30	0xc063060b	-3.5472438
31	0xc02afc1b	-2.6716373

features.9.running_var f4 [32]
0	0x41e742d3	28.907629
1	0x40e4226b	7.1292014
2	0x4197eac5	18.989634
3	0x41d10275	26.1262
4	0x4079f168	3.9053593
5	0x4044ba4f	3.0738714
6	0x40e27480	7.076721
7	0x41f00982	30.004642
8	0x41e0c414	28.095741
9	0x401b579e	2.4272227
10	0x41e70d16	28.88139
11	0x418815e2	17.010685
12	0x41c5358a	24.651142
13	0x4113a84f	9.228591
14	0x4133f7ab	11.247966
15	0x4131a3b7	11.102469
16	0x40a794a2	5.2368937
17	0x419a0c8b	19.256124
18	0x40b1d523	5.5572677
19	0x41d6d44e	26.853664
20	0x41c88857	25.066572
21	0x4141dc2b	12.116252
22	0x413e6045	11.898503
23	0x41d57877	26.68382
24	0x41857215	16.680704
25	0x41e5b0e7	28.711378
26	0x40ae9a9a	5.4563723
27	0x41a0d65f	20.104673
28	0x4118cf48	9.550606
29	0x414eba61	12.920503
30	0x40d2dc58	6.5893974
31	0x41374ef9	11.45678

classifier.0.weight f4 [448, 32]
0	0x3e3b1319	0.18269004
1	0x3d83ff14	0.06445137
2	0x3d3d17a6	0.04616513
3	0xbc518ddb	-0.012790169
4	0x3db3e424	0.08783749
5	0x3d1bf7e5	0.038078208
6	0xbe923409	-0.28555325
7	0x3e103f95	0.14086755
8	0x3e3a9c3f	0.18223666
9	0xbdd2ac4f	-0.102867715
10	0x3e315a8d	0.17319699
11	0xbd9ea69d	-0.07746623
12	0x3e34484f	0.17605709
13	0xbe27d9bc	-0.16391653
14	0x3dcc0f03	0.09963801
15	0xbdd279e4	-0.10277155
16	0xbe546bcc	-0.20744246
17	0xbce5d848	-0.028057232
18	0xbe8343f8	-0.25637794
19	0xbcaf898b	-0.02142789
20	0xbe1283dd	-0.14308114
21	0x3dd6cea1	0.1048863
22	0x3dac7419	0.08420581
23	0xbdebd41e	-0.115150675
24	0x3e56682f	0.2093818
25	0xbd88172b	-0.06645044
26	0xbe2b8df5	-0.16753371
27	0xbd592c9a	-0.05302105
28	0x3de61ace	0.11235581
29	0xbbe3b351	-0.0069488664
30	0x3cdec236	0.027192216
31	0x3e01b69f	0.1266732
32	0x3bad0329	0.0052799177
33	0xbc150172	-0.009094583
34	0xbcce9e98	-0.025222108
35	0xbb4da1e7	-0.003137702
36	0x3c5fcd11	0.0136597315
37	0xbb79a4b4	-0.0038092555
38	0xbcbb1948	-0.022839203
39	0xbcaf9558	-0.021433517
40	0xbc98c3f5	-0.018648127
41	0x3c6d445c	0.01448163
42	0x3b65f5d5	0.0035089154
43	0xbd03003c	-0.031982645
44	0xbc6a498b	-0.014299761
45	0xbc3f6d6b	-0.011683802
46	0xbc180ffc	-0.009281155
47	0xbc957058	-0.018242046
48	0xbcac0675	-0.020999173
49	0xbcd1a235	-0.025590042
50	0xbcc7f641	-0.024409415
51	0xba8f5626	-0.0010935708
52	0xbadaa978	-0.0016682586
53	0xbc8ce08e	-0.01719692
54	0xbcb36bcc	-0.021901987
55	0xbc9fa5ad	-0.01948818
56	0x3c509a00	0.012732029
57	0xbc92b7af	-0.017909853
58	0xbcbfce18	-0.023413703
59	0xbcabd835	-0.020977119
60	0xbc87c131	-0.016571613
61	0xbc0c8077	-0.00857555
62	0xbd1356c9	-0.035971437
63	0xbc8e3eeb	-0.017363986
64	0xbdfab83a	-0.1224217
65	0xbdba995f	-0.091112845
66	0xbd405f95	-0.046966154
67	0xbe2a0ef3	-0.16607265
68	0x3d8aa521	0.06769777
69	0x3e673be2	0.22581437
70	0xbdca9dce	-0.0989338
71	0xbc5f594d	-0.013632131
72	0xbe301b78	-0.17197978
73	0x3d48de87	0.049040344
74	0xbdda48bb	-0.106584035
75	0x3d305b3f	0.04305577
76	0xbd1bf9af	-0.038079914
77	0x3d6ad214	0.057329252
78	0xbe78ae69	-0.24285282
79	0xbd1edf2d	-0.038787056
80	0xbd2e21ce	-0.042512707
81	0xbdfe0f8d	-0.1240531
82	0x3d25a950	0.040444672
83	0x3da911a2	0.08255316
84	0xbe1cddeb	-0.1531903
85	0xbc034130	-0.008011147
86	0x3cd51739	0.02601205
87	0xbd665f55	-0.05624326
88	0xbdcbdd62	-0.09954335
89	0xbdc803cb	-0.097663485
90	0xbbd6d6a0	-0.006556347
91	0xbb8106c4	-0.003937574
92	0x3e4ae6d1	0.19814612
93	0xbd2db7ca	-0.042411603
94	0x3c57e0a1	0.013176114
95	0x3d1e6b38	0.03867647
96	0xbd0b7194	-0.034043863
97	0xbe0034bb	-0.12520115
98	0xbe13ca80	-0.14432716
99	0xbdf2563d	-0.11832855
100	0x3dc8f9cf	0.09813272
101	0x3e08724c	0.13324851
102	0xbe50927e	-0.20368382
103	0x3d8f40f8	0.06994814
104	0xbd984586	-0.074351355
105	0xbcb21381	-0.021737816
106	0xbdfaa609	-0.122387
107	0x3d2b0186	0.0417495
108	0x3e188131	0.14893033
109	0x3da929bc	0.08259913
110	0xbd9be36d	-0.076117374
111	0xbe3ebb1a	-0.18626061
112	0xbd860e04	-0.06545642
113	0x3dc35133	0.09536972
114	0xbd43bcbd	-0.047787417
115	0xbd9a7537	-0.07541888
116	0xbd49885c	-0.049202308
117	0xbdcb9a1f	-0.09941506
118	0xbe9de86d	-0.3084139
119	0x3de57f95	0.11205975
120	0xbe44bfb7	-0.19213758
121	0x3d7e2482	0.062046535
122	0xbe092063	-0.13391261
123	0xbdaf4d2d	-0.08559642
124	0x3dd50e87	0.104031615
125	0xbd0a33d0	-0.03374082
126	0xbdf11253	-0.11771073
127	0xbe405dc2	-0.18785766
128	0x3e3dfebc	0.18554205
129	0x39f6e109	0.0004708844
130	0x3d99c112	0.07507528
131	0x3e1795a0	0.14803171
132	0xbd9f064d	-0.07764874
133	0xbe614c1f	-0.22001694
134	0xbe47df13	-0.1951869
135	0x3c99dd0e	0.018782165
136	0x3e1daf29	0.1539885
137	0x3e1f8e7c	0.15581697
138	0x3e2e5273	0.1702364
139	0xbd62dc17	-0.055385675
140	0x3e0210b9	0.12701692
141	0x3e1e2178	0.15442455
142	0x3e39a35d	0.18128724
143	0xbe1ccfd7	-0.1531366
144	0xbe6f0d02	-0.23344806
145	0x3e80e4ae	0.2517447
146	0xbdc16e65	-0.09444884
147	0xbe0f8a10	-0.1401751
148	0xbde8ec44	-0.11373189
149	0x3e12a927	0.14322339
150	0xbd9fa91a	-0.077959254
151	0x3dab9269	0.08377535
152	0xbcad0847	-0.021122111
153	0x3dc69c70	0.09697807
154	0xbe6ce126	-0.23132762
155	0x3e3fa135	0.1871384
156	0x3c6ccae2	0.014452668
157	0x3dd6b02d	0.104828216
158	0xbe90395e	-0.28168768
159	0xbe110d49	-0.14165224
160	0x3d9a5c0d	0.075370885
161	0x3d874df1	0.06606663
162	0xbdb38089	-0.087647505
163	0x3da6585f	0.08122324
164	0x3c183fa7	0.00929252
165	0x3cd202c0	0.025636077
166	0x3c11aebc	0.008891758
167	0xbd197bab	-0.037471455
168	0xbd8534dd	-0.065042235
169	0x3c19c741	0.009385885
170	0xbcc0ba2e	-0.023526277
171	0xbdb2a085	-0.08722023
172	0xbde6fd2a	-0.11278756
173	0xbe14d1e3	-0.1453319
174	0x3d0affce	0.03393536
175	0x3d303976	0.04302355
176	0xbe040562	-0.12892678
177	0xbdfe0f7b	-0.124052964
178	0x3cfddc9b	0.030988982
179	0x3daaac73	0.08333673
180	0xbdb28fc8	-0.0871883
181	0x3a4c3001	0.00077891356
182	0xbda824f3	-0.082101725
183	0xbdba73da	-0.09104128
184	0xbdfe4f86	-0.12417512
185	0xbdd568c3	-0.10420372
186	0x3d45a70d	0.048255015
187	0x3be9ebee	0.0071387207
188	0xbe0c19b6	-0.13681683
189	0xbce800eb	-0.02832075
190	0x3d99847c	0.074959725
191	0x3d9c97ee	0.07646166
192	0xbc2b18bf	-0.010442912
193	0xbc2c8040	-0.010528624
194	0xbb95b948	-0.0045692064
195	0xbc171fd8	-0.009223901
196	0xbc0a7728	-0.008451261
197	0xbc8ddef3	-0.017318225
198	0xbbf24a9d	-0.0073941485
199	0xbb67a6dd	-0.003534726
200	0xbaea6415	-0.001788261
201	0xbc1e6d69	-0.00966964
202	0xbc19bcbb	-0.009383376
203	0xbb55942e	-0.0032589543
204	0xba92a5f5	-0.0011188375
205	0x39af87d8	0.00033479813
206	0xbbf81a44	-0.0075714905
207	0xbb20a40d	-0.0024511844
208	0xbbbdf160	-0.0057965964
209	0xbb5037bf	-0.0031771509
210	0xbb8a45d8	-0.004219752
211	0xbb952a46	-0.0045521585
212	0xbbd7c46f	-0.006584696
213	0xbb447953	-0.0029979541
214	0xbb247897	-0.0025096291
215	0xbb13e6b2	-0.0022567925
216	0xbc496e4d	-0.012294364
217	0xbaaba0f2	-0.001309423
218	0xbb52e69c	-0.003218091
219	0xbb8c8232	-0.0042879814
220	0x387263bf	5.7790192e-05
221	0xbc6d7aaa	-0.014494577
222	0xbc0e2f24	-0.008678231
223	0xbb42f860	-0.0029750094
224	0xbca71244	-0.020394452
225	0xbcad0a85	-0.02112318
226	0xbc70550d	-0.014668715
227	0xbbac3cb6	-0.0052562607
228	0x3c44c325	0.012009417
229	0x3c9921f7	0.018692954
230	0xbd43d463	-0.04780997
231	0xbc9a9f29	-0.018874722
232	0xbb22d589	-0.0024846515
233	0x3c07fa4b	0.008299421
234	0xbc94f06c	-0.018181048
235	0xbd40a916	-0.047036253
236	0xbb49e477	-0.0030806342
237	0x3bc1118d	0.005891985
238	0xbcadd1b1	-0.021218153
239	0xbd253a50	-0.040338814
240	0xbd843550	-0.06455481
241	0xbc959900	-0.018261433
242	0xbd6cd238	-0.057817668
243	0xbba780cd	-0.00511179
244	0xbbe3bd72	-0.006950074
245	0xbd382649	-0.044958387
246	0xbd453072	-0.048141904
247	0xbb839e03	-0.004016639
248	0xbcc38aa5	-0.023869822
249	0xbc4d642b	-0.012536089
250	0xbd69224c	-0.056917474
251	0xbc282af5	-0.010264148
252	0x3b9c7f3c	0.0047759097
253	0xbc83713c	-0.016045205
254	0xbd86fa6d	-0.06590734
255	0xbd393449	-0.04521588

classifier.0.bias f4 [448]
0	0x3d3c5c19	0.04598627
1	0xbca88954	-0.020573296
2	0x3dd08537	0.10181659
3	0xbce1f804	-0.027584083
4	0xbe1813e5	-0.14851339
5	0x3c3f2da0	0.011668593
6	0xbc045418	-0.00807669
7	0xbd0860f2	-0.03329558
8	0xbbe7aaa7	-0.007069904
9	0x3d3d678c	0.046241328
10	0xbceb8f46	-0.028754842
11	0x3e206c8b	0.15666406
12	0xbdb0fd0c	-0.08642015
13	0xbc00276b	-0.007821898
14	0xbc11b3c2	-0.008892955
15	0xbbd82b5a	-0.006596965
16	0x3bf4be74	0.007468993
17	0x3b7506ed	0.0037388161
18	0xbd105a80	-0.035242558
19	0xbc97a68f	-0.018512039
20	0x3cf459e1	0.029828014
21	0x3d109cc9	0.035305772
22	0xbd290a0c	-0.041269347
23	0x3b38a9a6	0.002817729
24	0x3e3197e1	0.17343093
25	0xbcc3a46b	-0.023882112
26	0x3e158bf7	0.14604174
27	0x3e1db4cd	0.15401001
28	0xbd89fc08	-0.06737524
29	0xbcd1761b	-0.025569012
30	0x3c6b1414	0.014348049
31	0xbe023a08	-0.1271745
32	0xbca6783f	-0.02032101
33	0x3d889d00	0.066705704
34	0xbcabf916	-0.020992797
35	0x3e0c76c7	0.13717185
36	0xbbf9bf7b	-0.007621703
37	0x3c8bd6c4	0.017070182
38	0xbc7a5d3a	-0.015281016
39	0xbc5ffb7e	-0.0136708
40	0xbda7be7c	-0.08190629
41	0xbd3145e8	-0.04327956
42	0xbc0a8e56	-0.008456787
43	0x3cad38bb	0.021145215
44	0x3d8495d2	0.064738885
45	0xbc5f7b53	-0.013640243
46	0xbd886b63	-0.066611074
47	0xbcf65f35	-0.030074695
48	0xbdea7c9d	-0.11449549
49	0xbc24be8c	-0.010055196
50	0xbc675b60	-0.014120907
51	0x3df6e702	0.1205578
52	0x3dc5fe08	0.09667593
53	0xbe2124b0	-0.15736651
54	0x3d158818	0.036506742
55	0xbd15d7c8	-0.03658274
56	0xbad1eb8c	-0.0016015633
57	0xbc631943	-0.013861003
58	0x3dfd3518	0.123636425
59	0xbe090d20	-0.13383913
60	0x3d21dd92	0.039517947
61	0xbdc49e47	-0.096005015
62	0x3dc6c718	0.09705943
63	0x3e10fd67	0.14159165
64	0xbcc0de0b	-0.023543378
65	0x3dbdf454	0.092751175
66	0xbdeb8732	-0.11500396
67	0x3e29bdc9	0.16576304
68	0x3cf6361f	0.030055104
69	0x3e122a15	0.14273866
70	0xbbd0e59f	-0.006375029
71	0xbe0c144f	-0.13679622
72	0x3e18480e	0.14871237
73	0xbdd87e4e	-0.10570966
74	0xbd9f6e71	-0.07784737
75	0xbcc4ba3f	-0.02401459
76	0x3e0d64b9	0.13807954
77	0xbd6e4944	-0.05817534
78	0xbd4076c7	-0.046988275
79	0xbc041aeb	-0.008063058
80	0xbd2ef1ef	-0.042711195
81	0xbd6135fc	-0.054983124
82	0x3db987c3	0.090590976
83	0x3da347af	0.07972657
84	0x3e06aa35	0.13150866
85	0xbc050dbc	-0.00812095
86	0xbdc09230	-0.09402883
87	0xbd3ebf26	-0.046569012
88	0x3de35c57	0.11101597
89	0xbc8c918c	-0.017159246
90	0x3e0e034b	0.13868444
91	0xbd81bc1a	-0.06334706
92	0x3e1ee313	0.1551631
93	0xbd685af0	-0.05672735
94	0x3dee2196	0.116275
95	0xbde7e147	-0.11322265
96	0xbc9e9b8c	-0.01936128
97	0xbc4b8ef0	-0.012424216
98	0x3e23e9e4	0.16007191
99	0xbdeb9dc8	-0.11504704
100	0xbcecf58e	-0.028925683
101	0xbbe803fc	-0.007080553
102	0xbc9c32c6	-0.01906718
103	0x3e2e0472	0.16993883
104	0x3e35d5a1	0.17757274
105	0x3d3d74d0	0.04625398
106	0xbc910270	-0.017701358
107	0x3d8fde62	0.07024838
108	0xbd84d2da	-0.06485529
109	0xbd00a30b	-0.03140549
110	0x3bae9389	0.005327646
111	0xbca2215a	-0.019791294
112	0x3de01181	0.109408386
113	0x3c1e4ade	0.009661404
114	0x3d8eda81	0.0697527
115	0xbd86452a	-0.06556161
116	0x3bb5b348	0.0055450536
117	0x3cb57b74	0.022153594
118	0x3d3a0818	0.045417875
119	0x3e1cefe8	0.15325892
120	0xbcd7312c	-0.026268564
121	0x3a447b24	0.0007495156
122	0xbd98b046	-0.074554965
123	0xbe218f31	-0.1577728
124	0xbb58d596	-0.0033086292
125	0xbd018407	-0.03162005
126	0x3d5bae04	0.05363275
127	0xbc905d7f	-0.017622707
128	0x3d6aaaea	0.057291903
129	0xbc937a2c	-0.018002592
130	0x3c9a6a54	0.01884953
131	0x3bfcd557	0.007715862
132	0x3dbc3826	0.09190397
133	0x3daa0263	0.083012365
134	0x3de72957	0.11287182
135	0xbcbb4226	-0.02285869
136	0x3e6706a0	0.22561121
137	0x3e1b4222	0.15161946
138	0x3bf27a5c	0.0073998403
139	0xbd07d903	-0.033165943
140	0x3e4810e8	0.19537699
141	0xbda9b650	-0.082867265
142	0xba9f93e9	-0.0012174818
143	0xbceb687d	-0.028736347
144	0x3d679050	0.05653411
145	0x3dc3e2aa	0.09564717
146	0xbc46e31e	-0.01213911
147	0xbdaa65bd	-0.08320186
148	0xbb890cb6	-0.0041824235
149	0x3ce20821	0.027591767
150	0x3d7c8a66	0.061655425
151	0xbb93d265	-0.004511165
152	0xbcfff33a	-0.03124391
153	0x3d494a82	0.04914332
154	0x3cd28b1c	0.025701098
155	0x3e2dde81	0.1697941
156	0x3d9cf43a	0.0766377
157	0x3d21f11b	0.039536577
158	0x3d94341b	0.07236501
159	0xbddb4d35	-0.107080854
160	0xbd0b58d8	-0.034020275
161	0xbc91fb94	-0.017820157
162	0xbc97994f	-0.01850572
163	0x3d03f282	0.032213695
164	0xbbb94dec	-0.005655041
165	0x3ce8df87	0.028426899
166	0x3c519268	0.012791254
167	0xbdef29c2	-0.116778865
168	0xbc04f814	-0.008115787
169	0x3dbbddd6	0.09173171
170	0x3e0dad4b	0.13835637
171	0x3e0fd815	0.14047273
172	0x3e1d6770	0.1537149
173	0xbcff6512	-0.031176124
174	0xbb2b1812	-0.0026106876
175	0x3e0a31ff	0.13495634
176	0x3c57bfe0	0.013168305
177	0x3d4d1f56	0.050078712
178	0xbd436927	-0.047707703
179	0xbc995349	-0.018716471
180	0xbcc51365	-0.0240571
181	0x3e0f35fc	0.13985437
182	0x3e221020	0.15826464
183	0x3d230976	0.039803945
184	0x3e3e305e	0.18573138
185	0xbced9928	-0.029003695
186	0x3db23eb6	0.087033674
187	0xbcdc2f19	-0.026877927
188	0x3dcf3473	0.10117426
189	0xbc1d50e2	-0.0096018035
190	0xbbbc0b71	-0.0057386686
191	0x3e244978	0.16043651
192	0x3e0ddaa3	0.13852935
193	0x3b7fb818	0.003901964
194	0x3dc336e5	0.09531955
195	0x3c5d97f9	0.013525003
196	0x3d1ecfdd	0.038772453
197	0x3e1d062b	0.15334384
198	0xbd1f1d0c	-0.03884606
199	0xbe2c8c50	-0.168504
200	0x3daaa28f	0.08331787
201	0x3d1b6a66	0.037943266
202	0xbd960b40	-0.073263645
203	0xbc28c814	-0.010301609
204	0xbc9d3ed3	-0.019194996
205	0xbb8a5ae7	-0.004222262
206	0x3d96c81f	0.07362389
207	0x3c2189d8	0.009859525
208	0xbcc8e49b	-0.02452307
209	0xbe12c7f7	-0.14334093
210	0xbc137f2a	-0.009002486
211	0xbddf7689	-0.10911281
212	0xbd389841	-0.045067076
213	0xba5881c9	-0.00082590856
214	0x3da297f6	0.079391405
215	0x3e0189c1	0.12650205
216	0x3d89c8c9	0.0672775
217	0xbcdbe21a	-0.026841212
218	0x3da395f3	0.07987585
219	0x3d339500	0.04384327
220	0x3d654090	0.055969775
221	0x3d9c0971	0.07618988
222	0xbb9cd9c8	-0.0047867037
223	0xbb073476	-0.0020630634
224	0xbbbdb544	-0.005789431
225	0xbd64261a	-0.0557004
226	0xbb135171	-0.0022478963
227	0xbd9a1287	-0.07523065
228	0xbc6ccdc7	-0.014453358
229	0xbd2fb673	-0.042898607
230	0x3df6a076	0.12042324
231	0x3d99511d	0.07486174
232	0xbc4e9b98	-0.012610339
233	0xbc2ebf50	-0.01066573
234	0xbc7598ee	-0.014990075
235	0xbc7f1303	-0.015568498
236	0x3d571f2f	0.052519973
237	0xbd0a3dc0	-0.033750296
238	0xbc575965	-0.013143872
239	0x3c41b1ad	0.011822146
240	0xbd28f275	-0.04124685
241	0xbc4b8fa5	-0.012424384
242	0xbe542742	-0.207181
243	0x3c89a497	0.016802115
244	0x3dc8794b	0.0978876
245	0x3d709346	0.0587342
246	0x3e5cd1ec	0.21564454
247	0x3dc9fee2	0.09863068
248	0x3df3692e	0.11885296
249	0x3d7fe929	0.06247822
250	0xbc82b91e	-0.015957411
251	0x3d7154a1	0.0589186
252	0x3d5221ef	0.051301893
253	0xbce7e0bd	-0.028305406
254	0x3dd0b5bf	0.10190915
255	0x3d060f34	0.032729343
